{"class_name": "Model", "config": {"name": "model_1", "layers": [{"name": "input_1", "class_name": "InputLayer", "config": {"batch_input_shape": [null, 300, 300, 3], "dtype": "float32", "sparse": false, "name": "input_1"}, "inbound_nodes": []}, {"name": "identity_layer", "class_name": "Lambda", "config": {"name": "identity_layer", "trainable": true, "function": ["4wEAAAAAAAAAAQAAAAEAAABTAAAAcwQAAAB8AFMAKQFOqQApAdoGdGVuc29ycgEAAAByAQAAAPpH\nRDpccHJvamVjdDFcVGhhaV9kZXNzZXJ0X2RldGVjdGlvbl9BUElcc3NkX2tlcmFzXG1vZGVsc1xr\nZXJhc19zc2QzMDAucHnaDmlkZW50aXR5X2xheWVy9AAAAHMCAAAAAAE=\n", null, null], "function_type": "lambda", "output_shape": [300, 300, 3], "output_shape_type": "raw", "arguments": {}}, "inbound_nodes": [[["input_1", 0, 0, {}]]]}, {"name": "input_mean_normalization", "class_name": "Lambda", "config": {"name": "input_mean_normalization", "trainable": true, "function": ["4wEAAAAAAAAAAQAAAAMAAAATAAAAcw4AAAB8AHQAagGIAIMBGABTACkBTikC2gJucNoFYXJyYXkp\nAdoGdGVuc29yKQHaDXN1YnRyYWN0X21lYW6pAPpHRDpccHJvamVjdDFcVGhhaV9kZXNzZXJ0X2Rl\ndGVjdGlvbl9BUElcc3NkX2tlcmFzXG1vZGVsc1xrZXJhc19zc2QzMDAucHnaGGlucHV0X21lYW5f\nbm9ybWFsaXphdGlvbvcAAABzAgAAAAAB\n", null, [[123, 117, 104]]], "function_type": "lambda", "output_shape": [300, 300, 3], "output_shape_type": "raw", "arguments": {}}, "inbound_nodes": [[["identity_layer", 0, 0, {}]]]}, {"name": "input_channel_swap", "class_name": "Lambda", "config": {"name": "input_channel_swap", "trainable": true, "function": ["4wEAAAAAAAAAAQAAAAgAAAATAAAAc5oAAAB0AIgAgwFkAWsCckR0AWoCfABkAogAZAMZAGYCGQB8\nAGQCiABkBBkAZgIZAHwAZAKIAGQFGQBmAhkAZwNkCGQGjQJTAHQAiACDAWQHawJylnQBagJ8AGQC\niABkAxkAZgIZAHwAZAKIAGQEGQBmAhkAfABkAogAZAUZAGYCGQB8AGQCiABkARkAZgIZAGcEZAlk\nBo0CUwBkAFMAKQpO6QMAAAAu6QAAAADpAQAAAOkCAAAAKQHaBGF4aXPpBAAAAOn/////cgcAAAAp\nA9oDbGVu2gFL2gVzdGFjaykB2gZ0ZW5zb3IpAdoNc3dhcF9jaGFubmVsc6kA+kdEOlxwcm9qZWN0\nMVxUaGFpX2Rlc3NlcnRfZGV0ZWN0aW9uX0FQSVxzc2Rfa2VyYXNcbW9kZWxzXGtlcmFzX3NzZDMw\nMC5wedoSaW5wdXRfY2hhbm5lbF9zd2Fw/QAAAHMIAAAAAAEMATgBDAE=\n", null, [[2, 1, 0]]], "function_type": "lambda", "output_shape": [300, 300, 3], "output_shape_type": "raw", "arguments": {}}, "inbound_nodes": [[["input_mean_normalization", 0, 0, {}]]]}, {"name": "conv1_1", "class_name": "Conv2D", "config": {"name": "conv1_1", "trainable": true, "filters": 64, "kernel_size": [3, 3], "strides": [1, 1], "padding": "same", "data_format": "channels_last", "dilation_rate": [1, 1], "activation": "relu", "use_bias": true, "kernel_initializer": {"class_name": "VarianceScaling", "config": {"scale": 2.0, "mode": "fan_in", "distribution": "normal", "seed": null}}, "bias_initializer": {"class_name": "Zeros", "config": {}}, "kernel_regularizer": {"class_name": "L1L2", "config": {"l1": 0.0, "l2": 0.0005000000237487257}}, "bias_regularizer": null, "activity_regularizer": null, "kernel_constraint": null, "bias_constraint": null}, "inbound_nodes": [[["input_channel_swap", 0, 0, {}]]]}, {"name": "conv1_2", "class_name": "Conv2D", "config": {"name": "conv1_2", "trainable": true, "filters": 64, "kernel_size": [3, 3], "strides": [1, 1], "padding": "same", "data_format": "channels_last", "dilation_rate": [1, 1], "activation": "relu", "use_bias": true, "kernel_initializer": {"class_name": "VarianceScaling", "config": {"scale": 2.0, "mode": "fan_in", "distribution": "normal", "seed": null}}, "bias_initializer": {"class_name": "Zeros", "config": {}}, "kernel_regularizer": {"class_name": "L1L2", "config": {"l1": 0.0, "l2": 0.0005000000237487257}}, "bias_regularizer": null, "activity_regularizer": null, "kernel_constraint": null, "bias_constraint": null}, "inbound_nodes": [[["conv1_1", 0, 0, {}]]]}, {"name": "pool1", "class_name": "MaxPooling2D", "config": {"name": "pool1", "trainable": true, "pool_size": [2, 2], "padding": "same", "strides": [2, 2], "data_format": "channels_last"}, "inbound_nodes": [[["conv1_2", 0, 0, {}]]]}, {"name": "conv2_1", "class_name": "Conv2D", "config": {"name": "conv2_1", "trainable": true, "filters": 128, "kernel_size": [3, 3], "strides": [1, 1], "padding": "same", "data_format": "channels_last", "dilation_rate": [1, 1], "activation": "relu", "use_bias": true, "kernel_initializer": {"class_name": "VarianceScaling", "config": {"scale": 2.0, "mode": "fan_in", "distribution": "normal", "seed": null}}, "bias_initializer": {"class_name": "Zeros", "config": {}}, "kernel_regularizer": {"class_name": "L1L2", "config": {"l1": 0.0, "l2": 0.0005000000237487257}}, "bias_regularizer": null, "activity_regularizer": null, "kernel_constraint": null, "bias_constraint": null}, "inbound_nodes": [[["pool1", 0, 0, {}]]]}, {"name": "conv2_2", "class_name": "Conv2D", "config": {"name": "conv2_2", "trainable": true, "filters": 128, "kernel_size": [3, 3], "strides": [1, 1], "padding": "same", "data_format": "channels_last", "dilation_rate": [1, 1], "activation": "relu", "use_bias": true, "kernel_initializer": {"class_name": "VarianceScaling", "config": {"scale": 2.0, "mode": "fan_in", "distribution": "normal", "seed": null}}, "bias_initializer": {"class_name": "Zeros", "config": {}}, "kernel_regularizer": {"class_name": "L1L2", "config": {"l1": 0.0, "l2": 0.0005000000237487257}}, "bias_regularizer": null, "activity_regularizer": null, "kernel_constraint": null, "bias_constraint": null}, "inbound_nodes": [[["conv2_1", 0, 0, {}]]]}, {"name": "pool2", "class_name": "MaxPooling2D", "config": {"name": "pool2", "trainable": true, "pool_size": [2, 2], "padding": "same", "strides": [2, 2], "data_format": "channels_last"}, "inbound_nodes": [[["conv2_2", 0, 0, {}]]]}, {"name": "conv3_1", "class_name": "Conv2D", "config": {"name": "conv3_1", "trainable": true, "filters": 256, "kernel_size": [3, 3], "strides": [1, 1], "padding": "same", "data_format": "channels_last", "dilation_rate": [1, 1], "activation": "relu", "use_bias": true, "kernel_initializer": {"class_name": "VarianceScaling", "config": {"scale": 2.0, "mode": "fan_in", "distribution": "normal", "seed": null}}, "bias_initializer": {"class_name": "Zeros", "config": {}}, "kernel_regularizer": {"class_name": "L1L2", "config": {"l1": 0.0, "l2": 0.0005000000237487257}}, "bias_regularizer": null, "activity_regularizer": null, "kernel_constraint": null, "bias_constraint": null}, "inbound_nodes": [[["pool2", 0, 0, {}]]]}, {"name": "conv3_2", "class_name": "Conv2D", "config": {"name": "conv3_2", "trainable": true, "filters": 256, "kernel_size": [3, 3], "strides": [1, 1], "padding": "same", "data_format": "channels_last", "dilation_rate": [1, 1], "activation": "relu", "use_bias": true, "kernel_initializer": {"class_name": "VarianceScaling", "config": {"scale": 2.0, "mode": "fan_in", "distribution": "normal", "seed": null}}, "bias_initializer": {"class_name": "Zeros", "config": {}}, "kernel_regularizer": {"class_name": "L1L2", "config": {"l1": 0.0, "l2": 0.0005000000237487257}}, "bias_regularizer": null, "activity_regularizer": null, "kernel_constraint": null, "bias_constraint": null}, "inbound_nodes": [[["conv3_1", 0, 0, {}]]]}, {"name": "conv3_3", "class_name": "Conv2D", "config": {"name": "conv3_3", "trainable": true, "filters": 256, "kernel_size": [3, 3], "strides": [1, 1], "padding": "same", "data_format": "channels_last", "dilation_rate": [1, 1], "activation": "relu", "use_bias": true, "kernel_initializer": {"class_name": "VarianceScaling", "config": {"scale": 2.0, "mode": "fan_in", "distribution": "normal", "seed": null}}, "bias_initializer": {"class_name": "Zeros", "config": {}}, "kernel_regularizer": {"class_name": "L1L2", "config": {"l1": 0.0, "l2": 0.0005000000237487257}}, "bias_regularizer": null, "activity_regularizer": null, "kernel_constraint": null, "bias_constraint": null}, "inbound_nodes": [[["conv3_2", 0, 0, {}]]]}, {"name": "pool3", "class_name": "MaxPooling2D", "config": {"name": "pool3", "trainable": true, "pool_size": [2, 2], "padding": "same", "strides": [2, 2], "data_format": "channels_last"}, "inbound_nodes": [[["conv3_3", 0, 0, {}]]]}, {"name": "conv4_1", "class_name": "Conv2D", "config": {"name": "conv4_1", "trainable": true, "filters": 512, "kernel_size": [3, 3], "strides": [1, 1], "padding": "same", "data_format": "channels_last", "dilation_rate": [1, 1], "activation": "relu", "use_bias": true, "kernel_initializer": {"class_name": "VarianceScaling", "config": {"scale": 2.0, "mode": "fan_in", "distribution": "normal", "seed": null}}, "bias_initializer": {"class_name": "Zeros", "config": {}}, "kernel_regularizer": {"class_name": "L1L2", "config": {"l1": 0.0, "l2": 0.0005000000237487257}}, "bias_regularizer": null, "activity_regularizer": null, "kernel_constraint": null, "bias_constraint": null}, "inbound_nodes": [[["pool3", 0, 0, {}]]]}, {"name": "conv4_2", "class_name": "Conv2D", "config": {"name": "conv4_2", "trainable": true, "filters": 512, "kernel_size": [3, 3], "strides": [1, 1], "padding": "same", "data_format": "channels_last", "dilation_rate": [1, 1], "activation": "relu", "use_bias": true, "kernel_initializer": {"class_name": "VarianceScaling", "config": {"scale": 2.0, "mode": "fan_in", "distribution": "normal", "seed": null}}, "bias_initializer": {"class_name": "Zeros", "config": {}}, "kernel_regularizer": {"class_name": "L1L2", "config": {"l1": 0.0, "l2": 0.0005000000237487257}}, "bias_regularizer": null, "activity_regularizer": null, "kernel_constraint": null, "bias_constraint": null}, "inbound_nodes": [[["conv4_1", 0, 0, {}]]]}, {"name": "conv4_3", "class_name": "Conv2D", "config": {"name": "conv4_3", "trainable": true, "filters": 512, "kernel_size": [3, 3], "strides": [1, 1], "padding": "same", "data_format": "channels_last", "dilation_rate": [1, 1], "activation": "relu", "use_bias": true, "kernel_initializer": {"class_name": "VarianceScaling", "config": {"scale": 2.0, "mode": "fan_in", "distribution": "normal", "seed": null}}, "bias_initializer": {"class_name": "Zeros", "config": {}}, "kernel_regularizer": {"class_name": "L1L2", "config": {"l1": 0.0, "l2": 0.0005000000237487257}}, "bias_regularizer": null, "activity_regularizer": null, "kernel_constraint": null, "bias_constraint": null}, "inbound_nodes": [[["conv4_2", 0, 0, {}]]]}, {"name": "pool4", "class_name": "MaxPooling2D", "config": {"name": "pool4", "trainable": true, "pool_size": [2, 2], "padding": "same", "strides": [2, 2], "data_format": "channels_last"}, "inbound_nodes": [[["conv4_3", 0, 0, {}]]]}, {"name": "conv5_1", "class_name": "Conv2D", "config": {"name": "conv5_1", "trainable": true, "filters": 512, "kernel_size": [3, 3], "strides": [1, 1], "padding": "same", "data_format": "channels_last", "dilation_rate": [1, 1], "activation": "relu", "use_bias": true, "kernel_initializer": {"class_name": "VarianceScaling", "config": {"scale": 2.0, "mode": "fan_in", "distribution": "normal", "seed": null}}, "bias_initializer": {"class_name": "Zeros", "config": {}}, "kernel_regularizer": {"class_name": "L1L2", "config": {"l1": 0.0, "l2": 0.0005000000237487257}}, "bias_regularizer": null, "activity_regularizer": null, "kernel_constraint": null, "bias_constraint": null}, "inbound_nodes": [[["pool4", 0, 0, {}]]]}, {"name": "conv5_2", "class_name": "Conv2D", "config": {"name": "conv5_2", "trainable": true, "filters": 512, "kernel_size": [3, 3], "strides": [1, 1], "padding": "same", "data_format": "channels_last", "dilation_rate": [1, 1], "activation": "relu", "use_bias": true, "kernel_initializer": {"class_name": "VarianceScaling", "config": {"scale": 2.0, "mode": "fan_in", "distribution": "normal", "seed": null}}, "bias_initializer": {"class_name": "Zeros", "config": {}}, "kernel_regularizer": {"class_name": "L1L2", "config": {"l1": 0.0, "l2": 0.0005000000237487257}}, "bias_regularizer": null, "activity_regularizer": null, "kernel_constraint": null, "bias_constraint": null}, "inbound_nodes": [[["conv5_1", 0, 0, {}]]]}, {"name": "conv5_3", "class_name": "Conv2D", "config": {"name": "conv5_3", "trainable": true, "filters": 512, "kernel_size": [3, 3], "strides": [1, 1], "padding": "same", "data_format": "channels_last", "dilation_rate": [1, 1], "activation": "relu", "use_bias": true, "kernel_initializer": {"class_name": "VarianceScaling", "config": {"scale": 2.0, "mode": "fan_in", "distribution": "normal", "seed": null}}, "bias_initializer": {"class_name": "Zeros", "config": {}}, "kernel_regularizer": {"class_name": "L1L2", "config": {"l1": 0.0, "l2": 0.0005000000237487257}}, "bias_regularizer": null, "activity_regularizer": null, "kernel_constraint": null, "bias_constraint": null}, "inbound_nodes": [[["conv5_2", 0, 0, {}]]]}, {"name": "pool5", "class_name": "MaxPooling2D", "config": {"name": "pool5", "trainable": true, "pool_size": [3, 3], "padding": "same", "strides": [1, 1], "data_format": "channels_last"}, "inbound_nodes": [[["conv5_3", 0, 0, {}]]]}, {"name": "fc6", "class_name": "Conv2D", "config": {"name": "fc6", "trainable": true, "filters": 1024, "kernel_size": [3, 3], "strides": [1, 1], "padding": "same", "data_format": "channels_last", "dilation_rate": [6, 6], "activation": "relu", "use_bias": true, "kernel_initializer": {"class_name": "VarianceScaling", "config": {"scale": 2.0, "mode": "fan_in", "distribution": "normal", "seed": null}}, "bias_initializer": {"class_name": "Zeros", "config": {}}, "kernel_regularizer": {"class_name": "L1L2", "config": {"l1": 0.0, "l2": 0.0005000000237487257}}, "bias_regularizer": null, "activity_regularizer": null, "kernel_constraint": null, "bias_constraint": null}, "inbound_nodes": [[["pool5", 0, 0, {}]]]}, {"name": "fc7", "class_name": "Conv2D", "config": {"name": "fc7", "trainable": true, "filters": 1024, "kernel_size": [1, 1], "strides": [1, 1], "padding": "same", "data_format": "channels_last", "dilation_rate": [1, 1], "activation": "relu", "use_bias": true, "kernel_initializer": {"class_name": "VarianceScaling", "config": {"scale": 2.0, "mode": "fan_in", "distribution": "normal", "seed": null}}, "bias_initializer": {"class_name": "Zeros", "config": {}}, "kernel_regularizer": {"class_name": "L1L2", "config": {"l1": 0.0, "l2": 0.0005000000237487257}}, "bias_regularizer": null, "activity_regularizer": null, "kernel_constraint": null, "bias_constraint": null}, "inbound_nodes": [[["fc6", 0, 0, {}]]]}, {"name": "conv6_1", "class_name": "Conv2D", "config": {"name": "conv6_1", "trainable": true, "filters": 256, "kernel_size": [1, 1], "strides": [1, 1], "padding": "same", "data_format": "channels_last", "dilation_rate": [1, 1], "activation": "relu", "use_bias": true, "kernel_initializer": {"class_name": "VarianceScaling", "config": {"scale": 2.0, "mode": "fan_in", "distribution": "normal", "seed": null}}, "bias_initializer": {"class_name": "Zeros", "config": {}}, "kernel_regularizer": {"class_name": "L1L2", "config": {"l1": 0.0, "l2": 0.0005000000237487257}}, "bias_regularizer": null, "activity_regularizer": null, "kernel_constraint": null, "bias_constraint": null}, "inbound_nodes": [[["fc7", 0, 0, {}]]]}, {"name": "conv6_padding", "class_name": "ZeroPadding2D", "config": {"name": "conv6_padding", "trainable": true, "padding": [[1, 1], [1, 1]], "data_format": "channels_last"}, "inbound_nodes": [[["conv6_1", 0, 0, {}]]]}, {"name": "conv6_2", "class_name": "Conv2D", "config": {"name": "conv6_2", "trainable": true, "filters": 512, "kernel_size": [3, 3], "strides": [2, 2], "padding": "valid", "data_format": "channels_last", "dilation_rate": [1, 1], "activation": "relu", "use_bias": true, "kernel_initializer": {"class_name": "VarianceScaling", "config": {"scale": 2.0, "mode": "fan_in", "distribution": "normal", "seed": null}}, "bias_initializer": {"class_name": "Zeros", "config": {}}, "kernel_regularizer": {"class_name": "L1L2", "config": {"l1": 0.0, "l2": 0.0005000000237487257}}, "bias_regularizer": null, "activity_regularizer": null, "kernel_constraint": null, "bias_constraint": null}, "inbound_nodes": [[["conv6_padding", 0, 0, {}]]]}, {"name": "conv7_1", "class_name": "Conv2D", "config": {"name": "conv7_1", "trainable": true, "filters": 128, "kernel_size": [1, 1], "strides": [1, 1], "padding": "same", "data_format": "channels_last", "dilation_rate": [1, 1], "activation": "relu", "use_bias": true, "kernel_initializer": {"class_name": "VarianceScaling", "config": {"scale": 2.0, "mode": "fan_in", "distribution": "normal", "seed": null}}, "bias_initializer": {"class_name": "Zeros", "config": {}}, "kernel_regularizer": {"class_name": "L1L2", "config": {"l1": 0.0, "l2": 0.0005000000237487257}}, "bias_regularizer": null, "activity_regularizer": null, "kernel_constraint": null, "bias_constraint": null}, "inbound_nodes": [[["conv6_2", 0, 0, {}]]]}, {"name": "conv7_padding", "class_name": "ZeroPadding2D", "config": {"name": "conv7_padding", "trainable": true, "padding": [[1, 1], [1, 1]], "data_format": "channels_last"}, "inbound_nodes": [[["conv7_1", 0, 0, {}]]]}, {"name": "conv7_2", "class_name": "Conv2D", "config": {"name": "conv7_2", "trainable": true, "filters": 256, "kernel_size": [3, 3], "strides": [2, 2], "padding": "valid", "data_format": "channels_last", "dilation_rate": [1, 1], "activation": "relu", "use_bias": true, "kernel_initializer": {"class_name": "VarianceScaling", "config": {"scale": 2.0, "mode": "fan_in", "distribution": "normal", "seed": null}}, "bias_initializer": {"class_name": "Zeros", "config": {}}, "kernel_regularizer": {"class_name": "L1L2", "config": {"l1": 0.0, "l2": 0.0005000000237487257}}, "bias_regularizer": null, "activity_regularizer": null, "kernel_constraint": null, "bias_constraint": null}, "inbound_nodes": [[["conv7_padding", 0, 0, {}]]]}, {"name": "conv8_1", "class_name": "Conv2D", "config": {"name": "conv8_1", "trainable": true, "filters": 128, "kernel_size": [1, 1], "strides": [1, 1], "padding": "same", "data_format": "channels_last", "dilation_rate": [1, 1], "activation": "relu", "use_bias": true, "kernel_initializer": {"class_name": "VarianceScaling", "config": {"scale": 2.0, "mode": "fan_in", "distribution": "normal", "seed": null}}, "bias_initializer": {"class_name": "Zeros", "config": {}}, "kernel_regularizer": {"class_name": "L1L2", "config": {"l1": 0.0, "l2": 0.0005000000237487257}}, "bias_regularizer": null, "activity_regularizer": null, "kernel_constraint": null, "bias_constraint": null}, "inbound_nodes": [[["conv7_2", 0, 0, {}]]]}, {"name": "conv8_2", "class_name": "Conv2D", "config": {"name": "conv8_2", "trainable": true, "filters": 256, "kernel_size": [3, 3], "strides": [1, 1], "padding": "valid", "data_format": "channels_last", "dilation_rate": [1, 1], "activation": "relu", "use_bias": true, "kernel_initializer": {"class_name": "VarianceScaling", "config": {"scale": 2.0, "mode": "fan_in", "distribution": "normal", "seed": null}}, "bias_initializer": {"class_name": "Zeros", "config": {}}, "kernel_regularizer": {"class_name": "L1L2", "config": {"l1": 0.0, "l2": 0.0005000000237487257}}, "bias_regularizer": null, "activity_regularizer": null, "kernel_constraint": null, "bias_constraint": null}, "inbound_nodes": [[["conv8_1", 0, 0, {}]]]}, {"name": "conv9_1", "class_name": "Conv2D", "config": {"name": "conv9_1", "trainable": true, "filters": 128, "kernel_size": [1, 1], "strides": [1, 1], "padding": "same", "data_format": "channels_last", "dilation_rate": [1, 1], "activation": "relu", "use_bias": true, "kernel_initializer": {"class_name": "VarianceScaling", "config": {"scale": 2.0, "mode": "fan_in", "distribution": "normal", "seed": null}}, "bias_initializer": {"class_name": "Zeros", "config": {}}, "kernel_regularizer": {"class_name": "L1L2", "config": {"l1": 0.0, "l2": 0.0005000000237487257}}, "bias_regularizer": null, "activity_regularizer": null, "kernel_constraint": null, "bias_constraint": null}, "inbound_nodes": [[["conv8_2", 0, 0, {}]]]}, {"name": "conv4_3_norm", "class_name": "L2Normalization", "config": {"name": "conv4_3_norm", "trainable": true, "gamma_init": 20}, "inbound_nodes": [[["conv4_3", 0, 0, {}]]]}, {"name": "conv9_2", "class_name": "Conv2D", "config": {"name": "conv9_2", "trainable": true, "filters": 256, "kernel_size": [3, 3], "strides": [1, 1], "padding": "valid", "data_format": "channels_last", "dilation_rate": [1, 1], "activation": "relu", "use_bias": true, "kernel_initializer": {"class_name": "VarianceScaling", "config": {"scale": 2.0, "mode": "fan_in", "distribution": "normal", "seed": null}}, "bias_initializer": {"class_name": "Zeros", "config": {}}, "kernel_regularizer": {"class_name": "L1L2", "config": {"l1": 0.0, "l2": 0.0005000000237487257}}, "bias_regularizer": null, "activity_regularizer": null, "kernel_constraint": null, "bias_constraint": null}, "inbound_nodes": [[["conv9_1", 0, 0, {}]]]}, {"name": "conv4_3_norm_mbox_conf", "class_name": "Conv2D", "config": {"name": "conv4_3_norm_mbox_conf", "trainable": true, "filters": 32, "kernel_size": [3, 3], "strides": [1, 1], "padding": "same", "data_format": "channels_last", "dilation_rate": [1, 1], "activation": "linear", "use_bias": true, "kernel_initializer": {"class_name": "VarianceScaling", "config": {"scale": 2.0, "mode": "fan_in", "distribution": "normal", "seed": null}}, "bias_initializer": {"class_name": "Zeros", "config": {}}, "kernel_regularizer": {"class_name": "L1L2", "config": {"l1": 0.0, "l2": 0.0005000000237487257}}, "bias_regularizer": null, "activity_regularizer": null, "kernel_constraint": null, "bias_constraint": null}, "inbound_nodes": [[["conv4_3_norm", 0, 0, {}]]]}, {"name": "fc7_mbox_conf", "class_name": "Conv2D", "config": {"name": "fc7_mbox_conf", "trainable": true, "filters": 48, "kernel_size": [3, 3], "strides": [1, 1], "padding": "same", "data_format": "channels_last", "dilation_rate": [1, 1], "activation": "linear", "use_bias": true, "kernel_initializer": {"class_name": "VarianceScaling", "config": {"scale": 2.0, "mode": "fan_in", "distribution": "normal", "seed": null}}, "bias_initializer": {"class_name": "Zeros", "config": {}}, "kernel_regularizer": {"class_name": "L1L2", "config": {"l1": 0.0, "l2": 0.0005000000237487257}}, "bias_regularizer": null, "activity_regularizer": null, "kernel_constraint": null, "bias_constraint": null}, "inbound_nodes": [[["fc7", 0, 0, {}]]]}, {"name": "conv6_2_mbox_conf", "class_name": "Conv2D", "config": {"name": "conv6_2_mbox_conf", "trainable": true, "filters": 48, "kernel_size": [3, 3], "strides": [1, 1], "padding": "same", "data_format": "channels_last", "dilation_rate": [1, 1], "activation": "linear", "use_bias": true, "kernel_initializer": {"class_name": "VarianceScaling", "config": {"scale": 2.0, "mode": "fan_in", "distribution": "normal", "seed": null}}, "bias_initializer": {"class_name": "Zeros", "config": {}}, "kernel_regularizer": {"class_name": "L1L2", "config": {"l1": 0.0, "l2": 0.0005000000237487257}}, "bias_regularizer": null, "activity_regularizer": null, "kernel_constraint": null, "bias_constraint": null}, "inbound_nodes": [[["conv6_2", 0, 0, {}]]]}, {"name": "conv7_2_mbox_conf", "class_name": "Conv2D", "config": {"name": "conv7_2_mbox_conf", "trainable": true, "filters": 48, "kernel_size": [3, 3], "strides": [1, 1], "padding": "same", "data_format": "channels_last", "dilation_rate": [1, 1], "activation": "linear", "use_bias": true, "kernel_initializer": {"class_name": "VarianceScaling", "config": {"scale": 2.0, "mode": "fan_in", "distribution": "normal", "seed": null}}, "bias_initializer": {"class_name": "Zeros", "config": {}}, "kernel_regularizer": {"class_name": "L1L2", "config": {"l1": 0.0, "l2": 0.0005000000237487257}}, "bias_regularizer": null, "activity_regularizer": null, "kernel_constraint": null, "bias_constraint": null}, "inbound_nodes": [[["conv7_2", 0, 0, {}]]]}, {"name": "conv8_2_mbox_conf", "class_name": "Conv2D", "config": {"name": "conv8_2_mbox_conf", "trainable": true, "filters": 32, "kernel_size": [3, 3], "strides": [1, 1], "padding": "same", "data_format": "channels_last", "dilation_rate": [1, 1], "activation": "linear", "use_bias": true, "kernel_initializer": {"class_name": "VarianceScaling", "config": {"scale": 2.0, "mode": "fan_in", "distribution": "normal", "seed": null}}, "bias_initializer": {"class_name": "Zeros", "config": {}}, "kernel_regularizer": {"class_name": "L1L2", "config": {"l1": 0.0, "l2": 0.0005000000237487257}}, "bias_regularizer": null, "activity_regularizer": null, "kernel_constraint": null, "bias_constraint": null}, "inbound_nodes": [[["conv8_2", 0, 0, {}]]]}, {"name": "conv9_2_mbox_conf", "class_name": "Conv2D", "config": {"name": "conv9_2_mbox_conf", "trainable": true, "filters": 32, "kernel_size": [3, 3], "strides": [1, 1], "padding": "same", "data_format": "channels_last", "dilation_rate": [1, 1], "activation": "linear", "use_bias": true, "kernel_initializer": {"class_name": "VarianceScaling", "config": {"scale": 2.0, "mode": "fan_in", "distribution": "normal", "seed": null}}, "bias_initializer": {"class_name": "Zeros", "config": {}}, "kernel_regularizer": {"class_name": "L1L2", "config": {"l1": 0.0, "l2": 0.0005000000237487257}}, "bias_regularizer": null, "activity_regularizer": null, "kernel_constraint": null, "bias_constraint": null}, "inbound_nodes": [[["conv9_2", 0, 0, {}]]]}, {"name": "conv4_3_norm_mbox_loc", "class_name": "Conv2D", "config": {"name": "conv4_3_norm_mbox_loc", "trainable": true, "filters": 16, "kernel_size": [3, 3], "strides": [1, 1], "padding": "same", "data_format": "channels_last", "dilation_rate": [1, 1], "activation": "linear", "use_bias": true, "kernel_initializer": {"class_name": "VarianceScaling", "config": {"scale": 2.0, "mode": "fan_in", "distribution": "normal", "seed": null}}, "bias_initializer": {"class_name": "Zeros", "config": {}}, "kernel_regularizer": {"class_name": "L1L2", "config": {"l1": 0.0, "l2": 0.0005000000237487257}}, "bias_regularizer": null, "activity_regularizer": null, "kernel_constraint": null, "bias_constraint": null}, "inbound_nodes": [[["conv4_3_norm", 0, 0, {}]]]}, {"name": "fc7_mbox_loc", "class_name": "Conv2D", "config": {"name": "fc7_mbox_loc", "trainable": true, "filters": 24, "kernel_size": [3, 3], "strides": [1, 1], "padding": "same", "data_format": "channels_last", "dilation_rate": [1, 1], "activation": "linear", "use_bias": true, "kernel_initializer": {"class_name": "VarianceScaling", "config": {"scale": 2.0, "mode": "fan_in", "distribution": "normal", "seed": null}}, "bias_initializer": {"class_name": "Zeros", "config": {}}, "kernel_regularizer": {"class_name": "L1L2", "config": {"l1": 0.0, "l2": 0.0005000000237487257}}, "bias_regularizer": null, "activity_regularizer": null, "kernel_constraint": null, "bias_constraint": null}, "inbound_nodes": [[["fc7", 0, 0, {}]]]}, {"name": "conv6_2_mbox_loc", "class_name": "Conv2D", "config": {"name": "conv6_2_mbox_loc", "trainable": true, "filters": 24, "kernel_size": [3, 3], "strides": [1, 1], "padding": "same", "data_format": "channels_last", "dilation_rate": [1, 1], "activation": "linear", "use_bias": true, "kernel_initializer": {"class_name": "VarianceScaling", "config": {"scale": 2.0, "mode": "fan_in", "distribution": "normal", "seed": null}}, "bias_initializer": {"class_name": "Zeros", "config": {}}, "kernel_regularizer": {"class_name": "L1L2", "config": {"l1": 0.0, "l2": 0.0005000000237487257}}, "bias_regularizer": null, "activity_regularizer": null, "kernel_constraint": null, "bias_constraint": null}, "inbound_nodes": [[["conv6_2", 0, 0, {}]]]}, {"name": "conv7_2_mbox_loc", "class_name": "Conv2D", "config": {"name": "conv7_2_mbox_loc", "trainable": true, "filters": 24, "kernel_size": [3, 3], "strides": [1, 1], "padding": "same", "data_format": "channels_last", "dilation_rate": [1, 1], "activation": "linear", "use_bias": true, "kernel_initializer": {"class_name": "VarianceScaling", "config": {"scale": 2.0, "mode": "fan_in", "distribution": "normal", "seed": null}}, "bias_initializer": {"class_name": "Zeros", "config": {}}, "kernel_regularizer": {"class_name": "L1L2", "config": {"l1": 0.0, "l2": 0.0005000000237487257}}, "bias_regularizer": null, "activity_regularizer": null, "kernel_constraint": null, "bias_constraint": null}, "inbound_nodes": [[["conv7_2", 0, 0, {}]]]}, {"name": "conv8_2_mbox_loc", "class_name": "Conv2D", "config": {"name": "conv8_2_mbox_loc", "trainable": true, "filters": 16, "kernel_size": [3, 3], "strides": [1, 1], "padding": "same", "data_format": "channels_last", "dilation_rate": [1, 1], "activation": "linear", "use_bias": true, "kernel_initializer": {"class_name": "VarianceScaling", "config": {"scale": 2.0, "mode": "fan_in", "distribution": "normal", "seed": null}}, "bias_initializer": {"class_name": "Zeros", "config": {}}, "kernel_regularizer": {"class_name": "L1L2", "config": {"l1": 0.0, "l2": 0.0005000000237487257}}, "bias_regularizer": null, "activity_regularizer": null, "kernel_constraint": null, "bias_constraint": null}, "inbound_nodes": [[["conv8_2", 0, 0, {}]]]}, {"name": "conv9_2_mbox_loc", "class_name": "Conv2D", "config": {"name": "conv9_2_mbox_loc", "trainable": true, "filters": 16, "kernel_size": [3, 3], "strides": [1, 1], "padding": "same", "data_format": "channels_last", "dilation_rate": [1, 1], "activation": "linear", "use_bias": true, "kernel_initializer": {"class_name": "VarianceScaling", "config": {"scale": 2.0, "mode": "fan_in", "distribution": "normal", "seed": null}}, "bias_initializer": {"class_name": "Zeros", "config": {}}, "kernel_regularizer": {"class_name": "L1L2", "config": {"l1": 0.0, "l2": 0.0005000000237487257}}, "bias_regularizer": null, "activity_regularizer": null, "kernel_constraint": null, "bias_constraint": null}, "inbound_nodes": [[["conv9_2", 0, 0, {}]]]}, {"name": "conv4_3_norm_mbox_conf_reshape", "class_name": "Reshape", "config": {"name": "conv4_3_norm_mbox_conf_reshape", "trainable": true, "target_shape": [-1, 8]}, "inbound_nodes": [[["conv4_3_norm_mbox_conf", 0, 0, {}]]]}, {"name": "fc7_mbox_conf_reshape", "class_name": "Reshape", "config": {"name": "fc7_mbox_conf_reshape", "trainable": true, "target_shape": [-1, 8]}, "inbound_nodes": [[["fc7_mbox_conf", 0, 0, {}]]]}, {"name": "conv6_2_mbox_conf_reshape", "class_name": "Reshape", "config": {"name": "conv6_2_mbox_conf_reshape", "trainable": true, "target_shape": [-1, 8]}, "inbound_nodes": [[["conv6_2_mbox_conf", 0, 0, {}]]]}, {"name": "conv7_2_mbox_conf_reshape", "class_name": "Reshape", "config": {"name": "conv7_2_mbox_conf_reshape", "trainable": true, "target_shape": [-1, 8]}, "inbound_nodes": [[["conv7_2_mbox_conf", 0, 0, {}]]]}, {"name": "conv8_2_mbox_conf_reshape", "class_name": "Reshape", "config": {"name": "conv8_2_mbox_conf_reshape", "trainable": true, "target_shape": [-1, 8]}, "inbound_nodes": [[["conv8_2_mbox_conf", 0, 0, {}]]]}, {"name": "conv9_2_mbox_conf_reshape", "class_name": "Reshape", "config": {"name": "conv9_2_mbox_conf_reshape", "trainable": true, "target_shape": [-1, 8]}, "inbound_nodes": [[["conv9_2_mbox_conf", 0, 0, {}]]]}, {"name": "conv4_3_norm_mbox_priorbox", "class_name": "AnchorBoxes", "config": {"name": "conv4_3_norm_mbox_priorbox", "trainable": true, "img_height": 300, "img_width": 300, "this_scale": 0.1, "next_scale": 0.2, "aspect_ratios": [1.0, 2.0, 0.5], "two_boxes_for_ar1": true, "clip_boxes": false, "variances": [0.1, 0.1, 0.2, 0.2], "coords": "centroids", "normalize_coords": true}, "inbound_nodes": [[["conv4_3_norm_mbox_loc", 0, 0, {}]]]}, {"name": "fc7_mbox_priorbox", "class_name": "AnchorBoxes", "config": {"name": "fc7_mbox_priorbox", "trainable": true, "img_height": 300, "img_width": 300, "this_scale": 0.2, "next_scale": 0.37, "aspect_ratios": [1.0, 2.0, 0.5, 3.0, 0.3333333333333333], "two_boxes_for_ar1": true, "clip_boxes": false, "variances": [0.1, 0.1, 0.2, 0.2], "coords": "centroids", "normalize_coords": true}, "inbound_nodes": [[["fc7_mbox_loc", 0, 0, {}]]]}, {"name": "conv6_2_mbox_priorbox", "class_name": "AnchorBoxes", "config": {"name": "conv6_2_mbox_priorbox", "trainable": true, "img_height": 300, "img_width": 300, "this_scale": 0.37, "next_scale": 0.54, "aspect_ratios": [1.0, 2.0, 0.5, 3.0, 0.3333333333333333], "two_boxes_for_ar1": true, "clip_boxes": false, "variances": [0.1, 0.1, 0.2, 0.2], "coords": "centroids", "normalize_coords": true}, "inbound_nodes": [[["conv6_2_mbox_loc", 0, 0, {}]]]}, {"name": "conv7_2_mbox_priorbox", "class_name": "AnchorBoxes", "config": {"name": "conv7_2_mbox_priorbox", "trainable": true, "img_height": 300, "img_width": 300, "this_scale": 0.54, "next_scale": 0.71, "aspect_ratios": [1.0, 2.0, 0.5, 3.0, 0.3333333333333333], "two_boxes_for_ar1": true, "clip_boxes": false, "variances": [0.1, 0.1, 0.2, 0.2], "coords": "centroids", "normalize_coords": true}, "inbound_nodes": [[["conv7_2_mbox_loc", 0, 0, {}]]]}, {"name": "conv8_2_mbox_priorbox", "class_name": "AnchorBoxes", "config": {"name": "conv8_2_mbox_priorbox", "trainable": true, "img_height": 300, "img_width": 300, "this_scale": 0.71, "next_scale": 0.88, "aspect_ratios": [1.0, 2.0, 0.5], "two_boxes_for_ar1": true, "clip_boxes": false, "variances": [0.1, 0.1, 0.2, 0.2], "coords": "centroids", "normalize_coords": true}, "inbound_nodes": [[["conv8_2_mbox_loc", 0, 0, {}]]]}, {"name": "conv9_2_mbox_priorbox", "class_name": "AnchorBoxes", "config": {"name": "conv9_2_mbox_priorbox", "trainable": true, "img_height": 300, "img_width": 300, "this_scale": 0.88, "next_scale": 1.05, "aspect_ratios": [1.0, 2.0, 0.5], "two_boxes_for_ar1": true, "clip_boxes": false, "variances": [0.1, 0.1, 0.2, 0.2], "coords": "centroids", "normalize_coords": true}, "inbound_nodes": [[["conv9_2_mbox_loc", 0, 0, {}]]]}, {"name": "mbox_conf", "class_name": "Concatenate", "config": {"name": "mbox_conf", "trainable": true, "axis": 1}, "inbound_nodes": [[["conv4_3_norm_mbox_conf_reshape", 0, 0, {}], ["fc7_mbox_conf_reshape", 0, 0, {}], ["conv6_2_mbox_conf_reshape", 0, 0, {}], ["conv7_2_mbox_conf_reshape", 0, 0, {}], ["conv8_2_mbox_conf_reshape", 0, 0, {}], ["conv9_2_mbox_conf_reshape", 0, 0, {}]]]}, {"name": "conv4_3_norm_mbox_loc_reshape", "class_name": "Reshape", "config": {"name": "conv4_3_norm_mbox_loc_reshape", "trainable": true, "target_shape": [-1, 4]}, "inbound_nodes": [[["conv4_3_norm_mbox_loc", 0, 0, {}]]]}, {"name": "fc7_mbox_loc_reshape", "class_name": "Reshape", "config": {"name": "fc7_mbox_loc_reshape", "trainable": true, "target_shape": [-1, 4]}, "inbound_nodes": [[["fc7_mbox_loc", 0, 0, {}]]]}, {"name": "conv6_2_mbox_loc_reshape", "class_name": "Reshape", "config": {"name": "conv6_2_mbox_loc_reshape", "trainable": true, "target_shape": [-1, 4]}, "inbound_nodes": [[["conv6_2_mbox_loc", 0, 0, {}]]]}, {"name": "conv7_2_mbox_loc_reshape", "class_name": "Reshape", "config": {"name": "conv7_2_mbox_loc_reshape", "trainable": true, "target_shape": [-1, 4]}, "inbound_nodes": [[["conv7_2_mbox_loc", 0, 0, {}]]]}, {"name": "conv8_2_mbox_loc_reshape", "class_name": "Reshape", "config": {"name": "conv8_2_mbox_loc_reshape", "trainable": true, "target_shape": [-1, 4]}, "inbound_nodes": [[["conv8_2_mbox_loc", 0, 0, {}]]]}, {"name": "conv9_2_mbox_loc_reshape", "class_name": "Reshape", "config": {"name": "conv9_2_mbox_loc_reshape", "trainable": true, "target_shape": [-1, 4]}, "inbound_nodes": [[["conv9_2_mbox_loc", 0, 0, {}]]]}, {"name": "conv4_3_norm_mbox_priorbox_reshape", "class_name": "Reshape", "config": {"name": "conv4_3_norm_mbox_priorbox_reshape", "trainable": true, "target_shape": [-1, 8]}, "inbound_nodes": [[["conv4_3_norm_mbox_priorbox", 0, 0, {}]]]}, {"name": "fc7_mbox_priorbox_reshape", "class_name": "Reshape", "config": {"name": "fc7_mbox_priorbox_reshape", "trainable": true, "target_shape": [-1, 8]}, "inbound_nodes": [[["fc7_mbox_priorbox", 0, 0, {}]]]}, {"name": "conv6_2_mbox_priorbox_reshape", "class_name": "Reshape", "config": {"name": "conv6_2_mbox_priorbox_reshape", "trainable": true, "target_shape": [-1, 8]}, "inbound_nodes": [[["conv6_2_mbox_priorbox", 0, 0, {}]]]}, {"name": "conv7_2_mbox_priorbox_reshape", "class_name": "Reshape", "config": {"name": "conv7_2_mbox_priorbox_reshape", "trainable": true, "target_shape": [-1, 8]}, "inbound_nodes": [[["conv7_2_mbox_priorbox", 0, 0, {}]]]}, {"name": "conv8_2_mbox_priorbox_reshape", "class_name": "Reshape", "config": {"name": "conv8_2_mbox_priorbox_reshape", "trainable": true, "target_shape": [-1, 8]}, "inbound_nodes": [[["conv8_2_mbox_priorbox", 0, 0, {}]]]}, {"name": "conv9_2_mbox_priorbox_reshape", "class_name": "Reshape", "config": {"name": "conv9_2_mbox_priorbox_reshape", "trainable": true, "target_shape": [-1, 8]}, "inbound_nodes": [[["conv9_2_mbox_priorbox", 0, 0, {}]]]}, {"name": "mbox_conf_softmax", "class_name": "Activation", "config": {"name": "mbox_conf_softmax", "trainable": true, "activation": "softmax"}, "inbound_nodes": [[["mbox_conf", 0, 0, {}]]]}, {"name": "mbox_loc", "class_name": "Concatenate", "config": {"name": "mbox_loc", "trainable": true, "axis": 1}, "inbound_nodes": [[["conv4_3_norm_mbox_loc_reshape", 0, 0, {}], ["fc7_mbox_loc_reshape", 0, 0, {}], ["conv6_2_mbox_loc_reshape", 0, 0, {}], ["conv7_2_mbox_loc_reshape", 0, 0, {}], ["conv8_2_mbox_loc_reshape", 0, 0, {}], ["conv9_2_mbox_loc_reshape", 0, 0, {}]]]}, {"name": "mbox_priorbox", "class_name": "Concatenate", "config": {"name": "mbox_priorbox", "trainable": true, "axis": 1}, "inbound_nodes": [[["conv4_3_norm_mbox_priorbox_reshape", 0, 0, {}], ["fc7_mbox_priorbox_reshape", 0, 0, {}], ["conv6_2_mbox_priorbox_reshape", 0, 0, {}], ["conv7_2_mbox_priorbox_reshape", 0, 0, {}], ["conv8_2_mbox_priorbox_reshape", 0, 0, {}], ["conv9_2_mbox_priorbox_reshape", 0, 0, {}]]]}, {"name": "predictions", "class_name": "Concatenate", "config": {"name": "predictions", "trainable": true, "axis": 2}, "inbound_nodes": [[["mbox_conf_softmax", 0, 0, {}], ["mbox_loc", 0, 0, {}], ["mbox_priorbox", 0, 0, {}]]]}], "input_layers": [["input_1", 0, 0]], "output_layers": [["predictions", 0, 0]]}, "keras_version": "2.2.0", "backend": "tensorflow"}